…
output_dir='experiments/weather_4tasks',
log_dir='./output_dir',
device='cuda',
seed=0,
resume='',
start_epoch=0,
num_workers=1,
pin_mem=True,
world_size=2,
local_rank=-1,
dist_on_itp=False,
dist_url='env://',
second_input_size=224,
rank=0,
gpu=0,
distributed=True,
dist_backend='nccl')
[12:06:09.101989] 962472
[12:06:09.102070] 274992
[12:06:11.792683] 200
[12:06:11.795064] Sampler_train = <torch.utils.data.distributed.DistributedSampler object at 0x7fd4c5baab00>
[12:06:13.719900] Head: Simple_Head
[12:06:28.914933] epoch_size is 1237464
[12:06:28.916775] Model = MaskedAutoencoderViT(
  (patch_embed): PatchEmbed(
    (proj): Conv2d(2, 1024, kernel_size=(16, 16), stride=(16, 16))
    (norm): Identity()
  )
  (patch_embed_4c): PatchEmbed(
    (proj): Conv2d(4, 1024, kernel_size=(16, 16), stride=(16, 16))
    (norm): Identity()
  )
  (align_patch): Linear(in_features=1024, out_features=1024, bias=True)
  (blocks): ModuleList(
    (0-23): 24 x Block(
      (norm1): LayerNorm((1024,), eps=1e-06, elementwise_affine=True)
      (attn): Attention(
        (qkv): Linear(in_features=1024, out_features=3072, bias=True)
        (attn_drop): Dropout(p=0.0, inplace=False)
        (proj): Linear(in_features=1024, out_features=1024, bias=True)
        (proj_drop): Dropout(p=0.0, inplace=False)
      )
      (drop_path): Identity()
      (norm2): LayerNorm((1024,), eps=1e-06, elementwise_affine=True)
      (mlp): Mlp(
        (fc1): Linear(in_features=1024, out_features=4096, bias=True)
        (act): GELU(approximate='none')
        (drop1): Dropout(p=0.0, inplace=False)
        (fc2): Linear(in_features=4096, out_features=1024, bias=True)
        (drop2): Dropout(p=0.0, inplace=False)
      )
    )
  )
  (norm): LayerNorm((1024,), eps=1e-06, elementwise_affine=True)
  (decoder_embed): Linear(in_features=1024, out_features=512, bias=True)
  (decoder_blocks): ModuleList(
    (0-7): 8 x Block(
      (norm1): LayerNorm((512,), eps=1e-06, elementwise_affine=True)
      (attn): Attention(
        (qkv): Linear(in_features=512, out_features=1536, bias=True)
        (attn_drop): Dropout(p=0.0, inplace=False)
        (proj): Linear(in_features=512, out_features=512, bias=True)
        (proj_drop): Dropout(p=0.0, inplace=False)
      )
      (drop_path): Identity()
      (norm2): LayerNorm((512,), eps=1e-06, elementwise_affine=True)
      (mlp): Mlp(
        (fc1): Linear(in_features=512, out_features=2048, bias=True)
        (act): GELU(approximate='none')
        (drop1): Dropout(p=0.0, inplace=False)
        (fc2): Linear(in_features=2048, out_features=512, bias=True)
        (drop2): Dropout(p=0.0, inplace=False)
      )
    )
  )
  (decoder_norm): LayerNorm((512,), eps=1e-06, elementwise_affine=True)
  (decoder_pred): Linear(in_features=512, out_features=512, bias=True)
  (decoder_pred_4c): Linear(in_features=512, out_features=1024, bias=True)
  (CNN_Head): Simple_Head(
    (conv_first): Conv2d(2, 64, kernel_size=(3, 3), stride=(1, 1), padding=(1, 1))
    (HRconv): Conv2d(64, 64, kernel_size=(3, 3), stride=(1, 1), padding=(1, 1))
    (conv_last): Conv2d(64, 2, kernel_size=(3, 3), stride=(1, 1), padding=(1, 1))
    (lrelu): LeakyReLU(negative_slope=0.1, inplace=True)
  )
  (L1_loss): L1Loss()
)
[12:06:28.916809] base lr: 1.00e-04
[12:06:28.916820] actual lr: 5.00e-05
[12:06:28.916832] accumulate grad iterations: 4
[12:06:28.916842] effective batch size: 128
[12:06:29.240507] AdamW (
Parameter Group 0
    amsgrad: False
    betas: (0.9, 0.95)
    capturable: False
…
