…
[15:08:04.242101] max_precip: 147.140
[15:08:04.242109] max_terra: 7891.156
[15:08:04.242118] 
[15:08:04.254060] 1812636
[15:08:04.254110] 558137
[15:08:09.106033] 960
[15:08:09.106209] Sampler_train = <torch.utils.data.distributed.DistributedSampler object at 0x7fa254e01990>
[15:08:11.355745] Head: Simple_Head
[15:08:26.348865] Load pretrained model:  /mnt/petrelfs/zhaoxiangyu1/code/weather_prompt_new/experiments/weather_5tasks/checkpoint-49.pth
[15:08:34.078613] <All keys matched successfully>
[15:08:34.336261] epoch_size is 1812636
[15:08:34.338344] Model = MaskedAutoencoderViT(
  (patch_embed): PatchEmbed(
    (proj): Conv2d(2, 1024, kernel_size=(16, 16), stride=(16, 16))
    (norm): Identity()
  )
  (patch_embed_4c): PatchEmbed(
    (proj): Conv2d(4, 1024, kernel_size=(16, 16), stride=(16, 16))
    (norm): Identity()
  )
  (align_patch): Linear(in_features=1024, out_features=1024, bias=True)
  (blocks): ModuleList(
    (0-23): 24 x Block(
      (norm1): LayerNorm((1024,), eps=1e-06, elementwise_affine=True)
      (attn): Attention(
        (qkv): Linear(in_features=1024, out_features=3072, bias=True)
        (attn_drop): Dropout(p=0.0, inplace=False)
        (proj): Linear(in_features=1024, out_features=1024, bias=True)
        (proj_drop): Dropout(p=0.0, inplace=False)
      )
      (drop_path): Identity()
      (norm2): LayerNorm((1024,), eps=1e-06, elementwise_affine=True)
      (mlp): Mlp(
        (fc1): Linear(in_features=1024, out_features=4096, bias=True)
        (act): GELU(approximate='none')
        (drop1): Dropout(p=0.0, inplace=False)
        (fc2): Linear(in_features=4096, out_features=1024, bias=True)
        (drop2): Dropout(p=0.0, inplace=False)
      )
    )
  )
  (norm): LayerNorm((1024,), eps=1e-06, elementwise_affine=True)
  (decoder_embed): Linear(in_features=1024, out_features=512, bias=True)
  (decoder_blocks): ModuleList(
    (0-7): 8 x Block(
      (norm1): LayerNorm((512,), eps=1e-06, elementwise_affine=True)
      (attn): Attention(
        (qkv): Linear(in_features=512, out_features=1536, bias=True)
        (attn_drop): Dropout(p=0.0, inplace=False)
        (proj): Linear(in_features=512, out_features=512, bias=True)
        (proj_drop): Dropout(p=0.0, inplace=False)
      )
      (drop_path): Identity()
      (norm2): LayerNorm((512,), eps=1e-06, elementwise_affine=True)
      (mlp): Mlp(
        (fc1): Linear(in_features=512, out_features=2048, bias=True)
        (act): GELU(approximate='none')
        (drop1): Dropout(p=0.0, inplace=False)
        (fc2): Linear(in_features=2048, out_features=512, bias=True)
        (drop2): Dropout(p=0.0, inplace=False)
      )
    )
  )
  (decoder_norm): LayerNorm((512,), eps=1e-06, elementwise_affine=True)
  (decoder_pred): Linear(in_features=512, out_features=512, bias=True)
  (decoder_pred_4c): Linear(in_features=512, out_features=1024, bias=True)
  (CNN_Head): Simple_Head(
    (conv_first): Conv2d(2, 64, kernel_size=(3, 3), stride=(1, 1), padding=(1, 1))
    (HRconv): Conv2d(64, 64, kernel_size=(3, 3), stride=(1, 1), padding=(1, 1))
    (conv_last): Conv2d(64, 2, kernel_size=(3, 3), stride=(1, 1), padding=(1, 1))
    (lrelu): LeakyReLU(negative_slope=0.1, inplace=True)
  )
  (L1_loss): L1Loss()
)
[15:08:34.338386] base lr: 1.00e-04
[15:08:34.338396] actual lr: 6.25e-05
[15:08:34.338405] accumulate grad iterations: 4
[15:08:34.338414] effective batch size: 160
[15:08:34.374725] AdamW (
Parameter Group 0
    amsgrad: False
    betas: (0.9, 0.95)
    capturable: False
…
