…
min_C14: 176.295
min_C15: 174.172
min_C16: 170.838
min_pct37: 138.643
min_pct89: 54.002
min_precip: 0.000
min_terra: 0.000

max:
max_C07: 359.456
max_C08: 324.413
max_C09: 316.124
max_C10: 290.336
max_C12: 284.381
max_C13: 318.761
max_C14: 317.384
max_C15: 319.212
max_C16: 299.252
max_pct37: 350.559
max_pct89: 320.947
max_precip: 147.140
max_terra: 7891.156

2400
Head: Simple_Head
Load pretrained model:  /mnt/petrelfs/zhaoxiangyu1/code/weather_prompt_new/experiments/weather_5tasks/checkpoint-49.pth
<All keys matched successfully>
Model = MaskedAutoencoderViT(
  (patch_embed): PatchEmbed(
    (proj): Conv2d(2, 1024, kernel_size=(16, 16), stride=(16, 16))
    (norm): Identity()
  )
  (patch_embed_4c): PatchEmbed(
    (proj): Conv2d(4, 1024, kernel_size=(16, 16), stride=(16, 16))
    (norm): Identity()
  )
  (align_patch): Linear(in_features=1024, out_features=1024, bias=True)
  (blocks): ModuleList(
    (0-23): 24 x Block(
      (norm1): LayerNorm((1024,), eps=1e-06, elementwise_affine=True)
      (attn): Attention(
        (qkv): Linear(in_features=1024, out_features=3072, bias=True)
        (attn_drop): Dropout(p=0.0, inplace=False)
        (proj): Linear(in_features=1024, out_features=1024, bias=True)
        (proj_drop): Dropout(p=0.0, inplace=False)
      )
      (drop_path): Identity()
      (norm2): LayerNorm((1024,), eps=1e-06, elementwise_affine=True)
      (mlp): Mlp(
        (fc1): Linear(in_features=1024, out_features=4096, bias=True)
        (act): GELU(approximate='none')
        (drop1): Dropout(p=0.0, inplace=False)
        (fc2): Linear(in_features=4096, out_features=1024, bias=True)
        (drop2): Dropout(p=0.0, inplace=False)
      )
    )
  )
  (norm): LayerNorm((1024,), eps=1e-06, elementwise_affine=True)
  (decoder_embed): Linear(in_features=1024, out_features=512, bias=True)
  (decoder_blocks): ModuleList(
    (0-7): 8 x Block(
      (norm1): LayerNorm((512,), eps=1e-06, elementwise_affine=True)
      (attn): Attention(
        (qkv): Linear(in_features=512, out_features=1536, bias=True)
        (attn_drop): Dropout(p=0.0, inplace=False)
        (proj): Linear(in_features=512, out_features=512, bias=True)
        (proj_drop): Dropout(p=0.0, inplace=False)
      )
      (drop_path): Identity()
      (norm2): LayerNorm((512,), eps=1e-06, elementwise_affine=True)
      (mlp): Mlp(
        (fc1): Linear(in_features=512, out_features=2048, bias=True)
        (act): GELU(approximate='none')
        (drop1): Dropout(p=0.0, inplace=False)
        (fc2): Linear(in_features=2048, out_features=512, bias=True)
        (drop2): Dropout(p=0.0, inplace=False)
      )
    )
  )
  (decoder_norm): LayerNorm((512,), eps=1e-06, elementwise_affine=True)
  (decoder_pred): Linear(in_features=512, out_features=512, bias=True)
  (decoder_pred_4c): Linear(in_features=512, out_features=1024, bias=True)
  (CNN_Head): Simple_Head(
    (conv_first): Conv2d(2, 64, kernel_size=(3, 3), stride=(1, 1), padding=(1, 1))
    (HRconv): Conv2d(64, 64, kernel_size=(3, 3), stride=(1, 1), padding=(1, 1))
    (conv_last): Conv2d(64, 2, kernel_size=(3, 3), stride=(1, 1), padding=(1, 1))
    (lrelu): LeakyReLU(negative_slope=0.1, inplace=True)
  )
  (L1_loss): L1Loss()
)
